…
6-c9b46d82933d","executionInfo":{"status":"ok","timestamp":1544572511865,"user_tz":300,"elapsed":327,"user":{"displayName":"Mountain Chan","photoUrl":"","userId":"06751548981326338197"}},"colab":{"base_uri":"https://localhost:8080/","height":510}},"cell_type":"code","source":["model.summary()"],"execution_count":13,"outputs":[{"output_type":"stream","text":["_________________________________________________________________\n","Layer (type)                 Output Shape              Param #   \n","=================================================================\n","conv2d_1 (Conv2D)            (None, 148, 148, 32)      896       \n","_________________________________________________________________\n","max_pooling2d_1 (MaxPooling2 (None, 74, 74, 32)        0         \n","_________________________________________________________________\n","conv2d_2 (Conv2D)            (None, 72, 72, 64)        18496     \n","_________________________________________________________________\n","max_pooling2d_2 (MaxPooling2 (None, 36, 36, 64)        0         \n","_________________________________________________________________\n","conv2d_3 (Conv2D)            (None, 34, 34, 128)       73856     \n","_________________________________________________________________\n","max_pooling2d_3 (MaxPooling2 (None, 17, 17, 128)       0         \n","_________________________________________________________________\n","conv2d_4 (Conv2D)            (None, 15, 15, 128)       147584    \n","_________________________________________________________________\n","max_pooling2d_4 (MaxPooling2 (None, 7, 7, 128)         0         \n","_________________________________________________________________\n","flatten_1 (Flatten)          (None, 6272)              0         \n","_________________________________________________________________\n","dense_1 (Dense)              (None, 512)               3211776   \n","_________________________________________________________________\n","dense_2 (Dense)              (None, 4)                 2052      \n","=================================================================\n","Total params: 3,454,660\n","Trainable params: 3,454,660\n","Non-trainable params: 0\n","_________________________________________________________________\n"],"name":"stdout"}]},{"metadata":{"id":"rG-Fvji0lJrZ","colab_type":"code","outputId":"f85935b9-16f8-49c9-a62c-e746d89aca08","executionInfo":{"status":"ok","timesta
…
