…
a4f1-a24add6282e1","executionInfo":{"status":"ok","timestamp":1541090279434,"user_tz":240,"elapsed":1247,"user":{"displayName":"Behnam Kia","photoUrl":"","userId":"07122336404946565648"}},"colab":{"base_uri":"https://localhost:8080/","height":532}},"cell_type":"code","source":["model.summary()"],"execution_count":0,"outputs":[{"output_type":"stream","text":["_________________________________________________________________\n","Layer (type)                 Output Shape              Param #   \n","=================================================================\n","conv2d_13 (Conv2D)           (None, 148, 148, 32)      896       \n","_________________________________________________________________\n","max_pooling2d_13 (MaxPooling (None, 74, 74, 32)        0         \n","_________________________________________________________________\n","conv2d_14 (Conv2D)           (None, 72, 72, 64)        18496     \n","_________________________________________________________________\n","max_pooling2d_14 (MaxPooling (None, 36, 36, 64)        0         \n","_________________________________________________________________\n","conv2d_15 (Conv2D)           (None, 34, 34, 128)       73856     \n","_________________________________________________________________\n","max_pooling2d_15 (MaxPooling (None, 17, 17, 128)       0         \n","_________________________________________________________________\n","conv2d_16 (Conv2D)           (None, 15, 15, 128)       147584    \n","_________________________________________________________________\n","max_pooling2d_16 (MaxPooling (None, 7, 7, 128)         0         \n","_________________________________________________________________\n","flatten_5 (Flatten)          (None, 6272)              0         \n","_________________________________________________________________\n","dense_11 (Dense)             (None, 512)               3211776   \n","_________________________________________________________________\n","dense_12 (Dense)             (None, 1)                 513       \n","=================================================================\n","Total params: 3,453,121\n","Trainable params: 3,453,121\n","Non-trainable params: 0\n","_________________________________________________________________\n"],"name":"stdout"}]},{"metadata":{"id":"Ub-dX4mwEnHv","colab_type":"code","outputId":"399414f6-06be-410e-e93e-63b42a5d0133","executionInfo":{"status":"ok","timest
…
-b8e0d147f313","executionInfo":{"status":"ok","timestamp":1541094776103,"user_tz":240,"elapsed":1409,"user":{"displayName":"Behnam Kia","photoUrl":"","userId":"07122336404946565648"}},"colab":{"base_uri":"https://localhost:8080/","height":816}},"cell_type":"code","source":["conv_base.summary()"],"execution_count":0,"outputs":[{"output_type":"stream","text":["_________________________________________________________________\n","Layer (type)                 Output Shape              Param #   \n","=================================================================\n","input_2 (InputLayer)         (None, 150, 150, 3)       0         \n","_________________________________________________________________\n","block1_conv1 (Conv2D)        (None, 150, 150, 64)      1792      \n","_________________________________________________________________\n","block1_conv2 (Conv2D)        (None, 150, 150, 64)      36928     \n","_________________________________________________________________\n","block1_pool (MaxPooling2D)   (None, 75, 75, 64)        0         \n","_________________________________________________________________\n","block2_conv1 (Conv2D)        (None, 75, 75, 128)       73856     \n","_________________________________________________________________\n","block2_conv2 (Conv2D)        (None, 75, 75, 128)       147584    \n","_________________________________________________________________\n","block2_pool (MaxPooling2D)   (None, 37, 37, 128)       0         \n","_________________________________________________________________\n","block3_conv1 (Conv2D)        (None, 37, 37, 256)       295168    \n","_________________________________________________________________\n","block3_conv2 (Conv2D)        (None, 37, 37, 256)       590080    \n","_________________________________________________________________\n","block3_conv3 (Conv2D)        (None, 37, 37, 256)       590080    \n","_________________________________________________________________\n","block3_pool (MaxPooling2D)   (None, 18, 18, 256)       0         \n","_________________________________________________________________\n","block4_conv1 (Conv2D)        (None, 18, 18, 512)       1180160   \n","_________________________________________________________________\n","block4_conv2 (Conv2D)        (None, 18, 18, 512)       2359808   \n","_________________________________________________________________\n","block4_conv3 (Conv2D)        (None, 18, 18, 512)       2359808   \n","_________________________________________________________________\n","block4_pool (MaxPooling2D)   (None, 9, 9, 512)         0         \n","_________________________________________________________________\n","block5_conv1 (Conv2D)        (None, 9, 9, 512)         2359808   \n","_________________________________________________________________\n","block5_conv2 (Conv2D)        (None, 9, 9, 512)         2359808   \n","_________________________________________________________________\n","block5_conv3 (Conv2D)        (None, 9, 9, 512)         2359808   \n","_________________________________________________________________\n","block5_pool (MaxPooling2D)   (None, 4, 4, 512)         0         \n","=================================================================\n","Total params: 14,714,688\n","Trainable params: 14,714,688\n","Non-trainable params: 0\n","_________________________________________________________________\n"],"name":"stdout"}]},{"metadata":{"id":"UGR2xxgbONnk","colab_type":"code","outputId":"e5c8cc22-1b36-406c-e2a8-6f068338c04f","executionInfo":{"status":"ok","ti
…
